…
[38;5;15m    [39m[38;5;204mENABLED[39m[38;5;15m:[39m[38;5;15m [39m[38;5;141mfalse[39m
[38;5;15m    [39m[38;5;204mNUM_ITER[39m[38;5;15m:[39m[38;5;15m [39m[38;5;141m200[39m
[38;5;204mVERSION[39m[38;5;15m:[39m[38;5;15m [39m[38;5;141m2[39m
[38;5;204mVIS_PERIOD[39m[38;5;15m:[39m[38;5;15m [39m[38;5;141m0[39m

[06/18 16:02:06 detectron2]: Full config saved to ./output/dota/build_retinanet_pvtv2_fpn_backbone/pretraining/config.yaml
[06/18 16:02:06 d2.utils.env]: Using a generated random seed 7213360
[06/18 16:02:06 d2.engine.defaults]: Model:
GeneralizedRCNN(
  (backbone): FPN(
    (fpn_lateral3): Conv2d(128, 256, kernel_size=(1, 1), stride=(1, 1))
    (fpn_output3): Conv2d(256, 256, kernel_size=(3, 3), stride=(1, 1), padding=(1, 1))
    (fpn_lateral4): Conv2d(320, 256, kernel_size=(1, 1), stride=(1, 1))
    (fpn_output4): Conv2d(256, 256, kernel_size=(3, 3), stride=(1, 1), padding=(1, 1))
    (top_block): LastLevelP6P7(
      (p6): Conv2d(320, 256, kernel_size=(3, 3), stride=(2, 2), padding=(1, 1))
      (p7): Conv2d(256, 256, kernel_size=(3, 3), stride=(2, 2), padding=(1, 1))
    )
    (bottom_up): PyramidVisionTransformerV2(
      (patch_embed): OverlapPatchEmbed(
        (proj): Conv2d(3, 64, kernel_size=(7, 7), stride=(4, 4), padding=(3, 3))
        (norm): LayerNorm((64,), eps=1e-05, elementwise_affine=True)
      )
      (stages): Sequential(
        (0): PyramidVisionTransformerStage(
          (blocks): ModuleList(
            (0): Block(
              (norm1): LayerNorm((64,), eps=1e-06, elementwise_affine=True)
              (attn): Attention(
                (q): Linear(in_features=64, out_features=64, bias=True)
                (kv): Linear(in_features=64, out_features=128, bias=True)
                (attn_drop): Dropout(p=0.0, inplace=False)
                (proj): Linear(in_features=64, out_features=64, bias=True)
                (proj_drop): Dropout(p=0.0, inplace=False)
                (pool): AdaptiveAvgPool2d(output_size=7)
                (sr): Conv2d(64, 64, kernel_size=(1, 1), stride=(1, 1))
                (norm): LayerNorm((64,), eps=1e-05, elementwise_affine=True)
                (act): GELU(approximate='none')
              )
              (drop_path1): Identity()
              (norm2): LayerNorm((64,), eps=1e-06, elementwise_affine=True)
              (mlp): MlpWithDepthwiseConv(
                (fc1): Linear(in_features=64, out_features=512, bias=True)
                (relu): ReLU()
                (dwconv): Conv2d(512, 512, kernel_size=(3, 3), stride=(1, 1), padding=(1, 1), groups=512)
                (act): GELU(approximate='none')
                (fc2): Linear(in_features=512, out_features=64, bias=True)
                (drop): Dropout(p=0.0, inplace=False)
              )
              (drop_path2): Identity()
            )
            (1): Block(
              (norm1): LayerNorm((64,), eps=1e-06, elementwise_affine=True)
              (attn): Attention(
                (q): Linear(in_features=64, out_features=64, bias=True)
                (kv): Linear(in_features=64, out_features=128, bias=True)
                (attn_drop): Dropout(p=0.0, inplace=False)
                (proj): Linear(in_features=64, out_features=64, bias=True)
                (proj_drop): Dropout(p=0.0, inplace=False)
                (pool): AdaptiveAvgPool2d(output_size=7)
                (sr): Conv2d(64, 64, kernel_size=(1, 1), stride=(1, 1))
                (norm): LayerNorm((64,), eps=1e-05, elementwise_affine=True)
                (act): GELU(approximate='none')
              )
              (drop_path1): DropPath(drop_prob=0.007)
              (norm2): LayerNorm((64,), eps=1e-06, elementwise_affine=True)
              (mlp): MlpWithDepthwiseConv(
                (fc1): Linear(in_features=64, out_features=512, bias=True)
                (relu): ReLU()
                (dwconv): Conv2d(512, 512, kernel_size=(3, 3), stride=(1, 1), padding=(1, 1), groups=512)
                (act): GELU(approximate='none')
                (fc2): Linear(in_features=512, out_features=64, bias=True)
                (drop): Dropout(p=0.0, inplace=False)
              )
              (drop_path2): DropPath(drop_prob=0.007)
            )
            (2): Block(
              (norm1): LayerNorm((64,), eps=1e-06, elementwise_affine=True)
              (attn): Attention(
                (q): Linear(in_features=64, out_features=64, bias=True)
                (kv): Linear(in_features=64, out_features=128, bias=True)
                (attn_drop): Dropout(p=0.0, inplace=False)
                (proj): Linear(in_features=64, out_features=64, bias=True)
                (proj_drop): Dropout(p=0.0, inplace=False)
                (pool): AdaptiveAvgPool2d(output_size=7)
                (sr): Conv2d(64, 64, kernel_size=(1, 1), stride=(1, 1))
                (norm): LayerNorm((64,), eps=1e-05, elementwise_affine=True)
                (act): GELU(approximate='none')
              )
              (drop_path1): DropPath(drop_prob=0.013)
              (norm2): LayerNorm((64,), eps=1e-06, elementwise_affine=True)
              (mlp): MlpWithDepthwiseConv(
                (fc1): Linear(in_features=64, out_features=512, bias=True)
                (relu): ReLU()
                (dwconv): Conv2d(512, 512, kernel_size=(3, 3), stride=(1, 1), padding=(1, 1), groups=512)
                (act): GELU(approximate='none')
                (fc2): Linear(in_features=512, out_features=64, bias=True)
                (drop): Dropout(p=0.0, inplace=False)
              )
              (drop_path2): DropPath(drop_prob=0.013)
            )
          )
          (norm): LayerNorm((64,), eps=1e-06, elementwise_affine=True)
        )
        (1): PyramidVisionTransformerStage(
          (downsample): OverlapPatchEmbed(
            (proj): Conv2d(64, 128, kernel_size=(3, 3), stride=(2, 2), padding=(1, 1))
            (norm): LayerNorm((128,), eps=1e-05, elementwise_affine=True)
          )
          (blocks): ModuleList(
            (0): Block(
              (norm1): LayerNorm((128,), eps=1e-06, elementwise_affine=True)
              (attn): Attention(
                (q): Linear(in_features=128, out_features=128, bias=True)
                (kv): Linear(in_features=128, out_features=256, bias=True)
                (attn_drop): Dropout(p=0.0, inplace=False)
                (proj): Linear(in_features=128, out_features=128, bias=True)
                (proj_drop): Dropout(p=0.0, inplace=False)
                (pool): AdaptiveAvgPool2d(output_size=7)
                (sr): Conv2d(128, 128, kernel_size=(1, 1), stride=(1, 1))
                (norm): LayerNorm((128,), eps=1e-05, elementwise_affine=True)
                (act): GELU(approximate='none')
              )
              (drop_path1): DropPath(drop_prob=0.020)
              (norm2): LayerNorm((128,), eps=1e-06, elementwise_affine=True)
              (mlp): MlpWithDepthwiseConv(
                (fc1): Linear(in_features=128, out_features=1024, bias=True)
                (relu): ReLU()
                (dwconv): Conv2d(1024, 1024, kernel_size=(3, 3), stride=(1, 1), padding=(1, 1), groups=1024)
                (act): GELU(approximate='none')
                (fc2): Linear(in_features=1024, out_features=128, bias=True)
                (drop): Dropout(p=0.0, inplace=False)
              )
              (drop_path2): DropPath(drop_prob=0.020)
            )
            (1): Block(
              (norm1): LayerNorm((128,), eps=1e-06, elementwise_affine=True)
              (attn): Attention(
                (q): Linear(in_features=128, out_features=128, bias=True)
                (kv): Linear(in_features=128, out_features=256, bias=True)
                (attn_drop): Dropout(p=0.0, inplace=False)
                (proj): Linear(in_features=128, out_features=128, bias=True)
                (proj_drop): Dropout(p=0.0, inplace=False)
                (pool): AdaptiveAvgPool2d(output_size=7)
                (sr): Conv2d(128, 128, kernel_size=(1, 1), stride=(1, 1))
                (norm): LayerNorm((128,), eps=1e-05, elementwise_affine=True)
                (act): GELU(approximate='none')
              )
              (drop_path1): DropPath(drop_prob=0.027)
              (norm2): LayerNorm((128,), eps=1e-06, elementwise_affine=True)
              (mlp): MlpWithDepthwiseConv(
                (fc1): Linear(in_features=128, out_features=1024, bias=True)
                (relu): ReLU()
                (dwconv): Conv2d(1024, 1024, kernel_size=(3, 3), stride=(1, 1), padding=(1, 1), groups=1024)
                (act): GELU(approximate='none')
                (fc2): Linear(in_features=1024, out_features=128, bias=True)
                (drop): Dropout(p=0.0, inplace=False)
              )
              (drop_path2): DropPath(drop_prob=0.027)
            )
            (2): Block(
              (norm1): LayerNorm((128,), eps=1e-06, elementwise_affine=True)
              (attn): Attention(
                (q): Linear(in_features=128, out_features=128, bias=True)
                (kv): Linear(in_features=128, out_features=256, bias=True)
                (attn_drop): Dropout(p=0.0, inplace=False)
                (proj): Linear(in_features=128, out_features=128, bias=True)
                (proj_drop): Dropout(p=0.0, inplace=False)
                (pool): AdaptiveAvgPool2d(output_size=7)
                (sr): Conv2d(128, 128, kernel_size=(1, 1), stride=(1, 1))
                (norm): LayerNorm((128,), eps=1e-05, elementwise_affine=True)
                (act): GELU(approximate='none')
              )
              (drop_path1): DropPath(drop_prob=0.033)
              (norm2): LayerNorm((128,), eps=1e-06, elementwise_affine=True)
              (mlp): MlpWithDepthwiseConv(
                (fc1): Linear(in_features=128, out_features=1024, bias=True)
                (relu): ReLU()
                (dwconv): Conv2d(1024, 1024, kernel_size=(3, 3), stride=(1, 1), padding=(1, 1), groups=1024)
                (act): GELU(approximate='none')
                (fc2): Linear(in_features=1024, out_features=128, bias=True)
                (drop): Dropout(p=0.0, inplace=False)
              )
              (drop_path2): DropPath(drop_prob=0.033)
            )
            (3): Block(
              (norm1): LayerNorm((128,), eps=1e-06, elementwise_affine=True)
              (attn): Attention(
                (q): Linear(in_features=128, out_features=128, bias=True)
                (kv): Linear(in_features=128, out_features=256, bias=True)
                (attn_drop): Dropout(p=0.0, inplace=False)
                (proj): Linear(in_features=128, out_features=128, bias=True)
                (proj_drop): Dropout(p=0.0, inplace=False)
                (pool): AdaptiveAvgPool2d(output_size=7)
                (sr): Conv2d(128, 128, kernel_size=(1, 1), stride=(1, 1))
                (norm): LayerNorm((128,), eps=1e-05, elementwise_affine=True)
                (act): GELU(approximate='none')
              )
              (drop_path1): DropPath(drop_prob=0.040)
              (norm2): LayerNorm((128,), eps=1e-06, elementwise_affine=True)
              (mlp): MlpWithDepthwiseConv(
                (fc1): Linear(in_features=128, out_features=1024, bias=True)
                (relu): ReLU()
                (dwconv): Conv2d(1024, 1024, kernel_size=(3, 3), stride=(1, 1), padding=(1, 1), groups=1024)
                (act): GELU(approximate='none')
                (fc2): Linear(in_features=1024, out_features=128, bias=True)
                (drop): Dropout(p=0.0, inplace=False)
              )
              (drop_path2): DropPath(drop_prob=0.040)
            )
          )
          (norm): LayerNorm((128,), eps=1e-06, elementwise_affine=True)
        )
        (2): PyramidVisionTransformerStage(
          (downsample): OverlapPatchEmbed(
            (proj): Conv2d(128, 320, kernel_size=(3, 3), stride=(2, 2), padding=(1, 1))
            (norm): LayerNorm((320,), eps=1e-05, elementwise_affine=True)
          )
          (blocks): ModuleList(
            (0): Block(
              (norm1): LayerNorm((320,), eps=1e-06, elementwise_affine=True)
              (attn): Attention(
                (q): Linear(in_features=320, out_features=320, bias=True)
                (kv): Linear(in_features=320, out_features=640, bias=True)
                (attn_drop): Dropout(p=0.0, inplace=False)
                (proj): Linear(in_features=320, out_features=320, bias=True)
                (proj_drop): Dropout(p=0.0, inplace=False)
                (pool): AdaptiveAvgPool2d(output_size=7)
                (sr): Conv2d(320, 320, kernel_size=(1, 1), stride=(1, 1))
                (norm): LayerNorm((320,), eps=1e-05, elementwise_affine=True)
                (act): GELU(approximate='none')
              )
              (drop_path1): DropPath(drop_prob=0.047)
              (norm2): LayerNorm((320,), eps=1e-06, elementwise_affine=True)
              (mlp): MlpWithDepthwiseConv(
                (fc1): Linear(in_features=320, out_features=1280, bias=True)
                (relu): ReLU()
                (dwconv): Conv2d(1280, 1280, kernel_size=(3, 3), stride=(1, 1), padding=(1, 1), groups=1280)
                (act): GELU(approximate='none')
                (fc2): Linear(in_features=1280, out_features=320, bias=True)
                (drop): Dropout(p=0.0, inplace=False)
              )
              (drop_path2): DropPath(drop_prob=0.047)
            )
            (1): Block(
              (norm1): LayerNorm((320,), eps=1e-06, elementwise_affine=True)
              (attn): Attention(
                (q): Linear(in_features=320, out_features=320, bias=True)
                (kv): Linear(in_features=320, out_features=640, bias=True)
                (attn_drop): Dropout(p=0.0, inplace=False)
                (proj): Linear(in_features=320, out_features=320, bias=True)
                (proj_drop): Dropout(p=0.0, inplace=False)
                (pool): AdaptiveAvgPool2d(output_size=7)
                (sr): Conv2d(320, 320, kernel_size=(1, 1), stride=(1, 1))
                (norm): LayerNorm((320,), eps=1e-05, elementwise_affine=True)
                (act): GELU(approximate='none')
              )
              (drop_path1): DropPath(drop_prob=0.053)
              (norm2): LayerNorm((320,), eps=1e-06, elementwise_affine=True)
              (mlp): MlpWithDepthwiseConv(
                (fc1): Linear(in_features=320, out_features=1280, bias=True)
                (relu): ReLU()
                (dwconv): Conv2d(1280, 1280, kernel_size=(3, 3), stride=(1, 1), padding=(1, 1), groups=1280)
                (act): GELU(approximate='none')
                (fc2): Linear(in_features=1280, out_features=320, bias=True)
                (drop): Dropout(p=0.0, inplace=False)
              )
              (drop_path2): DropPath(drop_prob=0.053)
            )
            (2): Block(
              (norm1): LayerNorm((320,), eps=1e-06, elementwise_affine=True)
              (attn): Attention(
                (q): Linear(in_features=320, out_features=320, bias=True)
                (kv): Linear(in_features=320, out_features=640, bias=True)
                (attn_drop): Dropout(p=0.0, inplace=False)
                (proj): Linear(in_features=320, out_features=320, bias=True)
                (proj_drop): Dropout(p=0.0, inplace=False)
                (pool): AdaptiveAvgPool2d(output_size=7)
                (sr): Conv2d(320, 320, kernel_size=(1, 1), stride=(1, 1))
                (norm): LayerNorm((320,), eps=1e-05, elementwise_affine=True)
                (act): GELU(approximate='none')
              )
              (drop_path1): DropPath(drop_prob=0.060)
              (norm2): LayerNorm((320,), eps=1e-06, elementwise_affine=True)
              (mlp): MlpWithDepthwiseConv(
                (fc1): Linear(in_features=320, out_features=1280, bias=True)
                (relu): ReLU()
                (dwconv): Conv2d(1280, 1280, kernel_size=(3, 3), stride=(1, 1), padding=(1, 1), groups=1280)
                (act): GELU(approximate='none')
                (fc2): Linear(in_features=1280, out_features=320, bias=True)
                (drop): Dropout(p=0.0, inplace=False)
              )
              (drop_path2): DropPath(drop_prob=0.060)
            )
            (3): Block(
              (norm1): LayerNorm((320,), eps=1e-06, elementwise_affine=True)
              (attn): Attention(
                (q): Linear(in_features=320, out_features=320, bias=True)
                (kv): Linear(in_features=320, out_features=640, bias=True)
                (attn_drop): Dropout(p=0.0, inplace=False)
                (proj): Linear(in_features=320, out_features=320, bias=True)
                (proj_drop): Dropout(p=0.0, inplace=False)
                (pool): AdaptiveAvgPool2d(output_size=7)
                (sr): Conv2d(320, 320, kernel_size=(1, 1), stride=(1, 1))
                (norm): LayerNorm((320,), eps=1e-05, elementwise_affine=True)
                (act): GELU(approximate='none')
              )
              (drop_path1): DropPath(drop_prob=0.067)
              (norm2): LayerNorm((320,), eps=1e-06, elementwise_affine=True)
              (mlp): MlpWithDepthwiseConv(
                (fc1): Linear(in_features=320, out_features=1280, bias=True)
                (relu): ReLU()
                (dwconv): Conv2d(1280, 1280, kernel_size=(3, 3), stride=(1, 1), padding=(1, 1), groups=1280)
                (act): GELU(approximate='none')
                (fc2): Linear(in_features=1280, out_features=320, bias=True)
                (drop): Dropout(p=0.0, inplace=False)
              )
              (drop_path2): DropPath(drop_prob=0.067)
            )
            (4): Block(
              (norm1): LayerNorm((320,), eps=1e-06, elementwise_affine=True)
              (attn): Attention(
                (q): Linear(in_features=320, out_features=320, bias=True)
                (kv): Linear(in_features=320, out_features=640, bias=True)
                (attn_drop): Dropout(p=0.0, inplace=False)
                (proj): Linear(in_features=320, out_features=320, bias=True)
                (proj_drop): Dropout(p=0.0, inplace=False)
                (pool): AdaptiveAvgPool2d(output_size=7)
                (sr): Conv2d(320, 320, kernel_size=(1, 1), stride=(1, 1))
                (norm): LayerNorm((320,), eps=1e-05, elementwise_affine=True)
                (act): GELU(approximate='none')
              )
              (drop_path1): DropPath(drop_prob=0.073)
              (norm2): LayerNorm((320,), eps=1e-06, elementwise_affine=True)
              (mlp): MlpWithDepthwiseConv(
                (fc1): Linear(in_features=320, out_features=1280, bias=True)
                (relu): ReLU()
                (dwconv): Conv2d(1280, 1280, kernel_size=(3, 3), stride=(1, 1), padding=(1, 1), groups=1280)
                (act): GELU(approximate='none')
                (fc2): Linear(in_features=1280, out_features=320, bias=True)
                (drop): Dropout(p=0.0, inplace=False)
              )
              (drop_path2): DropPath(drop_prob=0.073)
            )
            (5): Block(
              (norm1): LayerNorm((320,), eps=1e-06, elementwise_affine=True)
              (attn): Attention(
                (q): Linear(in_features=320, out_features=320, bias=True)
                (kv): Linear(in_features=320, out_features=640, bias=True)
                (attn_drop): Dropout(p=0.0, inplace=False)
                (proj): Linear(in_features=320, out_features=320, bias=True)
                (proj_drop): Dropout(p=0.0, inplace=False)
                (pool): AdaptiveAvgPool2d(output_size=7)
                (sr): Conv2d(320, 320, kernel_size=(1, 1), stride=(1, 1))
                (norm): LayerNorm((320,), eps=1e-05, elementwise_affine=True)
                (act): GELU(approximate='none')
              )
              (drop_path1): DropPath(drop_prob=0.080)
              (norm2): LayerNorm((320,), eps=1e-06, elementwise_affine=True)
              (mlp): MlpWithDepthwiseConv(
                (fc1): Linear(in_features=320, out_features=1280, bias=True)
                (relu): ReLU()
                (dwconv): Conv2d(1280, 1280, kernel_size=(3, 3), stride=(1, 1), padding=(1, 1), groups=1280)
                (act): GELU(approximate='none')
                (fc2): Linear(in_features=1280, out_features=320, bias=True)
                (drop): Dropout(p=0.0, inplace=False)
              )
              (drop_path2): DropPath(drop_prob=0.080)
            )
          )
          (norm): LayerNorm((320,), eps=1e-06, elementwise_affine=True)
        )
      )
      (head_drop): Dropout(p=0.0, inplace=False)
      (head): Identity()
    )
  )
  (proposal_generator): RPN(
    (rpn_head): StandardRPNHead(
      (conv): Conv2d(
        256, 256, kernel_size=(3, 3), stride=(1, 1), padding=(1, 1)
        (activation): ReLU()
      )
      (objectness_logits): Conv2d(256, 15, kernel_size=(1, 1), stride=(1, 1))
      (anchor_deltas): Conv2d(256, 60, kernel_size=(1, 1), stride=(1, 1))
    )
    (anchor_generator): DefaultAnchorGenerator(
      (cell_anchors): BufferList()
    )
  )
  (roi_heads): StandardROIHeads(
    (box_pooler): ROIPooler(
      (level_poolers): ModuleList(
        (0): ROIAlign(output_size=(14, 14), spatial_scale=0.03125, sampling_ratio=0, aligned=True)
        (1): ROIAlign(output_size=(14, 14), spatial_scale=0.015625, sampling_ratio=0, aligned=True)
      )
    )
    (box_head): PVT4BoxHead(
      (stage): PyramidVisionTransformerStage(
        (downsample): OverlapPatchEmbed(
          (proj): Conv2d(256, 512, kernel_size=(3, 3), stride=(2, 2), padding=(1, 1))
          (norm): LayerNorm((512,), eps=1e-05, elementwise_affine=True)
        )
        (blocks): ModuleList(
          (0): Block(
            (norm1): LayerNorm((512,), eps=1e-06, elementwise_affine=True)
            (attn): Attention(
              (q): Linear(in_features=512, out_features=512, bias=True)
              (kv): Linear(in_features=512, out_features=1024, bias=True)
              (attn_drop): Dropout(p=0.0, inplace=False)
              (proj): Linear(in_features=512, out_features=512, bias=True)
              (proj_drop): Dropout(p=0.0, inplace=False)
              (pool): AdaptiveAvgPool2d(output_size=7)
              (sr): Conv2d(512, 512, kernel_size=(1, 1), stride=(1, 1))
              (norm): LayerNorm((512,), eps=1e-05, elementwise_affine=True)
              (act): GELU(approximate='none')
            )
            (drop_path1): DropPath(drop_prob=0.087)
            (norm2): LayerNorm((512,), eps=1e-06, elementwise_affine=True)
            (mlp): MlpWithDepthwiseConv(
              (fc1): Linear(in_features=512, out_features=2048, bias=True)
              (relu): ReLU()
              (dwconv): Conv2d(2048, 2048, kernel_size=(3, 3), stride=(1, 1), padding=(1, 1), groups=2048)
              (act): GELU(approximate='none')
              (fc2): Linear(in_features=2048, out_features=512, bias=True)
              (drop): Dropout(p=0.0, inplace=False)
            )
            (drop_path2): DropPath(drop_prob=0.087)
          )
          (1): Block(
            (norm1): LayerNorm((512,), eps=1e-06, elementwise_affine=True)
            (attn): Attention(
              (q): Linear(in_features=512, out_features=512, bias=True)
              (kv): Linear(in_features=512, out_features=1024, bias=True)
              (attn_drop): Dropout(p=0.0, inplace=False)
              (proj): Linear(in_features=512, out_features=512, bias=True)
              (proj_drop): Dropout(p=0.0, inplace=False)
              (pool): AdaptiveAvgPool2d(output_size=7)
              (sr): Conv2d(512, 512, kernel_size=(1, 1), stride=(1, 1))
              (norm): LayerNorm((512,), eps=1e-05, elementwise_affine=True)
              (act): GELU(approximate='none')
            )
            (drop_path1): DropPath(drop_prob=0.093)
            (norm2): LayerNorm((512,), eps=1e-06, elementwise_affine=True)
            (mlp): MlpWithDepthwiseConv(
              (fc1): Linear(in_features=512, out_features=2048, bias=True)
              (relu): ReLU()
              (dwconv): Conv2d(2048, 2048, kernel_size=(3, 3), stride=(1, 1), padding=(1, 1), groups=2048)
              (act): GELU(approximate='none')
              (fc2): Linear(in_features=2048, out_features=512, bias=True)
              (drop): Dropout(p=0.0, inplace=False)
            )
            (drop_path2): DropPath(drop_prob=0.093)
          )
          (2): Block(
            (norm1): LayerNorm((512,), eps=1e-06, elementwise_affine=True)
            (attn): Attention(
              (q): Linear(in_features=512, out_features=512, bias=True)
              (kv): Linear(in_features=512, out_features=1024, bias=True)
              (attn_drop): Dropout(p=0.0, inplace=False)
              (proj): Linear(in_features=512, out_features=512, bias=True)
              (proj_drop): Dropout(p=0.0, inplace=False)
              (pool): AdaptiveAvgPool2d(output_size=7)
              (sr): Conv2d(512, 512, kernel_size=(1, 1), stride=(1, 1))
              (norm): LayerNorm((512,), eps=1e-05, elementwise_affine=True)
              (act): GELU(approximate='none')
            )
            (drop_path1): DropPath(drop_prob=0.100)
            (norm2): LayerNorm((512,), eps=1e-06, elementwise_affine=True)
            (mlp): MlpWithDepthwiseConv(
              (fc1): Linear(in_features=512, out_features=2048, bias=True)
              (relu): ReLU()
              (dwconv): Conv2d(2048, 2048, kernel_size=(3, 3), stride=(1, 1), padding=(1, 1), groups=2048)
              (act): GELU(approximate='none')
              (fc2): Linear(in_features=2048, out_features=512, bias=True)
              (drop): Dropout(p=0.0, inplace=False)
            )
            (drop_path2): DropPath(drop_prob=0.100)
          )
        )
        (norm): LayerNorm((512,), eps=1e-06, elementwise_affine=True)
      )
    )
    (box_predictor): FastRCNNOutputLayers(
      (cls_score): Linear(in_features=25088, out_features=19, bias=True)
      (bbox_pred): Linear(in_features=25088, out_features=72, bias=True)
    )
  )
)
['backbone.fpn_lateral3.weight', 'backbone.fpn_lateral3.bias', 'backbone.fpn_output3.weight', 'backbone.fpn_output3.bias', 'backbone.fpn_lateral4.weight', 'backbone.fpn_lateral4.bias', 'backbone.fpn_output4.weight', 'backbone.fpn_output4.bias', 'backbone.top_block.p6.weight', 'backbone.top_block.p6.bias', 'backbone.top_block.p7.weight', 'b
…
